…
[38;5;15m    [39m[38;5;204mNUM_ITER[39m[38;5;15m:[39m[38;5;15m [39m[38;5;141m200[39m
[38;5;204mVERSION[39m[38;5;15m:[39m[38;5;15m [39m[38;5;141m2[39m
[38;5;204mVIS_PERIOD[39m[38;5;15m:[39m[38;5;15m [39m[38;5;141m0[39m
[38;5;204meval_only[39m[38;5;15m:[39m[38;5;15m [39m[38;5;141mfalse[39m

[12/21 04:10:37] detectron2 INFO: Full config saved to ./out/semantic/sam3MC/bs4_1008_1e-5_120k/config.yaml
[12/21 04:10:45] d2.engine.defaults INFO: Model:
SAM3MC(
  (detector): Sam3Image(
    (backbone): SAM3VLBackbone(
      (vision_backbone): Sam3DualViTDetNeck(
        (trunk): ViT(
          (patch_embed): PatchEmbed(
            (proj): Conv2d(3, 1024, kernel_size=(14, 14), stride=(14, 14), bias=False)
          )
          (blocks): ModuleList(
            (0): Block(
              (norm1): LayerNorm((1024,), eps=1e-05, elementwise_affine=True)
              (attn): Attention(
                (qkv): Linear(in_features=1024, out_features=3072, bias=True)
                (proj): Linear(in_features=1024, out_features=1024, bias=True)
              )
              (ls1): Identity()
              (drop_path): Identity()
              (norm2): LayerNorm((1024,), eps=1e-05, elementwise_affine=True)
              (mlp): Mlp(
                (fc1): Linear(in_features=1024, out_features=4736, bias=True)
                (act): GELU(approximate='none')
                (drop1): Dropout(p=0.0, inplace=False)
                (norm): Identity()
                (fc2): Linear(in_features=4736, out_features=1024, bias=True)
                (drop2): Dropout(p=0.0, inplace=False)
              )
              (ls2): Identity()
              (dropout): Dropout(p=0.0, inplace=False)
            )
            (1): Block(
              (norm1): LayerNorm((1024,), eps=1e-05, elementwise_affine=True)
              (attn): Attention(
                (qkv): Linear(in_features=1024, out_features=3072, bias=True)
                (proj): Linear(in_features=1024, out_features=1024, bias=True)
              )
              (ls1): Identity()
              (drop_path): DropPath(drop_prob=0.003)
              (norm2): LayerNorm((1024,), eps=1e-05, elementwise_affine=True)
              (mlp): Mlp(
                (fc1): Linear(in_features=1024, out_features=4736, bias=True)
                (act): GELU(approximate='none')
                (drop1): Dropout(p=0.0, inplace=False)
                (norm): Identity()
                (fc2): Linear(in_features=4736, out_features=1024, bias=True)
                (drop2): Dropout(p=0.0, inplace=False)
              )
              (ls2): Identity()
              (dropout): Dropout(p=0.0, inplace=False)
            )
            (2): Block(
              (norm1): LayerNorm((1024,), eps=1e-05, elementwise_affine=True)
              (attn): Attention(
                (qkv): Linear(in_features=1024, out_features=3072, bias=True)
                (proj): Linear(in_features=1024, out_features=1024, bias=True)
              )
              (ls1): Identity()
              (drop_path): DropPath(drop_prob=0.006)
              (norm2): LayerNorm((1024,), eps=1e-05, elementwise_affine=True)
              (mlp): Mlp(
                (fc1): Linear(in_features=1024, out_features=4736, bias=True)
                (act): GELU(approximate='none')
                (drop1): Dropout(p=0.0, inplace=False)
                (norm): Identity()
                (fc2): Linear(in_features=4736, out_features=1024, bias=True)
                (drop2): Dropout(p=0.0, inplace=False)
              )
              (ls2): Identity()
              (dropout): Dropout(p=0.0, inplace=False)
            )
            (3): Block(
              (norm1): LayerNorm((1024,), eps=1e-05, elementwise_affine=True)
              (attn): Attention(
                (qkv): Linear(in_features=1024, out_features=3072, bias=True)
                (proj): Linear(in_features=1024, out_features=1024, bias=True)
              )
              (ls1): Identity()
              (drop_path): DropPath(drop_prob=0.010)
              (norm2): LayerNorm((1024,), eps=1e-05, elementwise_affine=True)
              (mlp): Mlp(
                (fc1): Linear(in_features=1024, out_features=4736, bias=True)
                (act): GELU(approximate='none')
                (drop1): Dropout(p=0.0, inplace=False)
                (norm): Identity()
                (fc2): Linear(in_features=4736, out_features=1024, bias=True)
                (drop2): Dropout(p=0.0, inplace=False)
              )
              (ls2): Identity()
              (dropout): Dropout(p=0.0, inplace=False)
            )
            (4): Block(
              (norm1): LayerNorm((1024,), eps=1e-05, elementwise_affine=True)
              (attn): Attention(
                (qkv): Linear(in_features=1024, out_features=3072, bias=True)
                (proj): Linear(in_features=1024, out_features=1024, bias=True)
              )
              (ls1): Identity()
              (drop_path): DropPath(drop_prob=0.013)
              (norm2): LayerNorm((1024,), eps=1e-05, elementwise_affine=True)
              (mlp): Mlp(
                (fc1): Linear(in_features=1024, out_features=4736, bias=True)
                (act): GELU(approximate='none')
                (drop1): Dropout(p=0.0, inplace=False)
                (norm): Identity()
                (fc2): Linear(in_features=4736, out_features=1024, bias=True)
                (drop2): Dropout(p=0.0, inplace=False)
              )
              (ls2): Identity()
              (dropout): Dropout(p=0.0, inplace=False)
            )
            (5): Block(
              (norm1): LayerNorm((1024,), eps=1e-05, elementwise_affine=True)
              (attn): Attention(
                (qkv): Linear(in_features=1024, out_features=3072, bias=True)
                (proj): Linear(in_features=1024, out_features=1024, bias=True)
              )
              (ls1): Identity()
              (drop_path): DropPath(drop_prob=0.016)
              (norm2): LayerNorm((1024,), eps=1e-05, elementwise_affine=True)
              (mlp): Mlp(
                (fc1): Linear(in_features=1024, out_features=4736, bias=True)
                (act): GELU(approximate='none')
                (drop1): Dropout(p=0.0, inplace=False)
                (norm): Identity()
                (fc2): Linear(in_features=4736, out_features=1024, bias=True)
                (drop2): Dropout(p=0.0, inplace=False)
              )
              (ls2): Identity()
              (dropout): Dropout(p=0.0, inplace=False)
            )
            (6): Block(
              (norm1): LayerNorm((1024,), eps=1e-05, elementwise_affine=True)
              (attn): Attention(
                (qkv): Linear(in_features=1024, out_features=3072, bias=True)
                (proj): Linear(in_features=1024, out_features=1024, bias=True)
              )
              (ls1): Identity()
              (drop_path): DropPath(drop_prob=0.019)
              (norm2): LayerNorm((1024,), eps=1e-05, elementwise_affine=True)
              (mlp): Mlp(
                (fc1): Linear(in_features=1024, out_features=4736, bias=True)
                (act): GELU(approximate='none')
                (drop1): Dropout(p=0.0, inplace=False)
                (norm): Identity()
                (fc2): Linear(in_features=4736, out_features=1024, bias=True)
                (drop2): Dropout(p=0.0, inplace=False)
              )
              (ls2): Identity()
              (dropout): Dropout(p=0.0, inplace=False)
            )
            (7): Block(
              (norm1): LayerNorm((1024,), eps=1e-05, elementwise_affine=True)
              (attn): Attention(
                (qkv): Linear(in_features=1024, out_features=3072, bias=True)
                (proj): Linear(in_features=1024, out_features=1024, bias=True)
              )
              (ls1): Identity()
              (drop_path): DropPath(drop_prob=0.023)
              (norm2): LayerNorm((1024,), eps=1e-05, elementwise_affine=True)
              (mlp): Mlp(
                (fc1): Linear(in_features=1024, out_features=4736, bias=True)
                (act): GELU(approximate='none')
                (drop1): Dropout(p=0.0, inplace=False)
                (norm): Identity()
                (fc2): Linear(in_features=4736, out_features=1024, bias=True)
                (drop2): Dropout(p=0.0, inplace=False)
              )
              (ls2): Identity()
              (dropout): Dropout(p=0.0, inplace=False)
            )
            (8): Block(
              (norm1): LayerNorm((1024,), eps=1e-05, elementwise_affine=True)
              (attn): Attention(
                (qkv): Linear(in_features=1024, out_features=3072, bias=True)
                (proj): Linear(in_features=1024, out_features=1024, bias=True)
              )
              (ls1): Identity()
              (drop_path): DropPath(drop_prob=0.026)
              (norm2): LayerNorm((1024,), eps=1e-05, elementwise_affine=True)
              (mlp): Mlp(
                (fc1): Linear(in_features=1024, out_features=4736, bias=True)
                (act): GELU(approximate='none')
                (drop1): Dropout(p=0.0, inplace=False)
                (norm): Identity()
                (fc2): Linear(in_features=4736, out_features=1024, bias=True)
                (drop2): Dropout(p=0.0, inplace=False)
              )
              (ls2): Identity()
              (dropout): Dropout(p=0.0, inplace=False)
            )
            (9): Block(
              (norm1): LayerNorm((1024,), eps=1e-05, elementwise_affine=True)
              (attn): Attention(
                (qkv): Linear(in_features=1024, out_features=3072, bias=True)
                (proj): Linear(in_features=1024, out_features=1024, bias=True)
              )
              (ls1): Identity()
              (drop_path): DropPath(drop_prob=0.029)
              (norm2): LayerNorm((1024,), eps=1e-05, elementwise_affine=True)
              (mlp): Mlp(
                (fc1): Linear(in_features=1024, out_features=4736, bias=True)
                (act): GELU(approximate='none')
                (drop1): Dropout(p=0.0, inplace=False)
                (norm): Identity()
                (fc2): Linear(in_features=4736, out_features=1024, bias=True)
                (drop2): Dropout(p=0.0, inplace=False)
              )
              (ls2): Identity()
              (dropout): Dropout(p=0.0, inplace=False)
            )
            (10): Block(
              (norm1): LayerNorm((1024,), eps=1e-05, elementwise_affine=True)
              (attn): Attention(
                (qkv): Linear(in_features=1024, out_features=3072, bias=True)
                (proj): Linear(in_features=1024, out_features=1024, bias=True)
              )
              (ls1): Identity()
              (drop_path): DropPath(drop_prob=0.032)
              (norm2): LayerNorm((1024,), eps=1e-05, elementwise_affine=True)
              (mlp): Mlp(
                (fc1): Linear(in_features=1024, out_features=4736, bias=True)
                (act): GELU(approximate='none')
                (drop1): Dropout(p=0.0, inplace=False)
                (norm): Identity()
                (fc2): Linear(in_features=4736, out_features=1024, bias=True)
                (drop2): Dropout(p=0.0, inplace=False)
              )
              (ls2): Identity()
              (dropout): Dropout(p=0.0, inplace=False)
            )
            (11): Block(
              (norm1): LayerNorm((1024,), eps=1e-05, elementwise_affine=True)
              (attn): Attention(
                (qkv): Linear(in_features=1024, out_features=3072, bias=True)
                (proj): Linear(in_features=1024, out_features=1024, bias=True)
              )
              (ls1): Identity()
              (drop_path): DropPath(drop_prob=0.035)
              (norm2): LayerNorm((1024,), eps=1e-05, elementwise_affine=True)
              (mlp): Mlp(
                (fc1): Linear(in_features=1024, out_features=4736, bias=True)
                (act): GELU(approximate='none')
                (drop1): Dropout(p=0.0, inplace=False)
                (norm): Identity()
                (fc2): Linear(in_features=4736, out_features=1024, bias=True)
                (drop2): Dropout(p=0.0, inplace=False)
              )
              (ls2): Identity()
              (dropout): Dropout(p=0.0, inplace=False)
            )
            (12): Block(
              (norm1): LayerNorm((1024,), eps=1e-05, elementwise_affine=True)
              (attn): Attention(
                (qkv): Linear(in_features=1024, out_features=3072, bias=True)
                (proj): Linear(in_features=1024, out_features=1024, bias=True)
              )
              (ls1): Identity()
              (drop_path): DropPath(drop_prob=0.039)
              (norm2): LayerNorm((1024,), eps=1e-05, elementwise_affine=True)
              (mlp): Mlp(
                (fc1): Linear(in_features=1024, out_features=4736, bias=True)
                (act): GELU(approximate='none')
                (drop1): Dropout(p=0.0, inplace=False)
                (norm): Identity()
                (fc2): Linear(in_features=4736, out_features=1024, bias=True)
                (drop2): Dropout(p=0.0, inplace=False)
              )
              (ls2): Identity()
              (dropout): Dropout(p=0.0, inplace=False)
            )
            (13): Block(
              (norm1): LayerNorm((1024,), eps=1e-05, elementwise_affine=True)
              (attn): Attention(
                (qkv): Linear(in_features=1024, out_features=3072, bias=True)
                (proj): Linear(in_features=1024, out_features=1024, bias=True)
              )
              (ls1): Identity()
              (drop_path): DropPath(drop_prob=0.042)
              (norm2): LayerNorm((1024,), eps=1e-05, elementwise_affine=True)
              (mlp): Mlp(
                (fc1): Linear(in_features=1024, out_features=4736, bias=True)
                (act): GELU(approximate='none')
                (drop1): Dropout(p=0.0, inplace=False)
                (norm): Identity()
                (fc2): Linear(in_features=4736, out_features=1024, bias=True)
                (drop2): Dropout(p=0.0, inplace=False)
              )
              (ls2): Identity()
              (dropout): Dropout(p=0.0, inplace=False)
            )
            (14): Block(
              (norm1): LayerNorm((1024,), eps=1e-05, elementwise_affine=True)
              (attn): Attention(
                (qkv): Linear(in_features=1024, out_features=3072, bias=True)
                (proj): Linear(in_features=1024, out_features=1024, bias=True)
              )
              (ls1): Identity()
              (drop_path): DropPath(drop_prob=0.045)
              (norm2): LayerNorm((1024,), eps=1e-05, elementwise_affine=True)
              (mlp): Mlp(
                (fc1): Linear(in_features=1024, out_features=4736, bias=True)
                (act): GELU(approximate='none')
                (drop1): Dropout(p=0.0, inplace=False)
                (norm): Identity()
                (fc2): Linear(in_features=4736, out_features=1024, bias=True)
                (drop2): Dropout(p=0.0, inplace=False)
              )
              (ls2): Identity()
              (dropout): Dropout(p=0.0, inplace=False)
            )
            (15): Block(
              (norm1): LayerNorm((1024,), eps=1e-05, elementwise_affine=True)
              (attn): Attention(
                (qkv): Linear(in_features=1024, out_features=3072, bias=True)
                (proj): Linear(in_features=1024, out_features=1024, bias=True)
              )
              (ls1): Identity()
              (drop_path): DropPath(drop_prob=0.048)
              (norm2): LayerNorm((1024,), eps=1e-05, elementwise_affine=True)
              (mlp): Mlp(
                (fc1): Linear(in_features=1024, out_features=4736, bias=True)
                (act): GELU(approximate='none')
                (drop1): Dropout(p=0.0, inplace=False)
                (norm): Identity()
                (fc2): Linear(in_features=4736, out_features=1024, bias=True)
                (drop2): Dropout(p=0.0, inplace=False)
              )
              (ls2): Identity()
              (dropout): Dropout(p=0.0, inplace=False)
            )
            (16): Block(
              (norm1): LayerNorm((1024,), eps=1e-05, elementwise_affine=True)
              (attn): Attention(
                (qkv): Linear(in_features=1024, out_features=3072, bias=True)
                (proj): Linear(in_features=1024, out_features=1024, bias=True)
              )
              (ls1): Identity()
              (drop_path): DropPath(drop_prob=0.052)
              (norm2): LayerNorm((1024,), eps=1e-05, elementwise_affine=True)
              (mlp): Mlp(
                (fc1): Linear(in_features=1024, out_features=4736, bias=True)
                (act): GELU(approximate='none')
                (drop1): Dropout(p=0.0, inplace=False)
                (norm): Identity()
                (fc2): Linear(in_features=4736, out_features=1024, bias=True)
                (drop2): Dropout(p=0.0, inplace=False)
              )
              (ls2): Identity()
              (dropout): Dropout(p=0.0, inplace=False)
            )
            (17): Block(
              (norm1): LayerNorm((1024,), eps=1e-05, elementwise_affine=True)
              (attn): Attention(
                (qkv): Linear(in_features=1024, out_features=3072, bias=True)
                (proj): Linear(in_features=1024, out_features=1024, bias=True)
              )
              (ls1): Identity()
              (drop_path): DropPath(drop_prob=0.055)
              (norm2): LayerNorm((1024,), eps=1e-05, elementwise_affine=True)
              (mlp): Mlp(
                (fc1): Linear(in_features=1024, out_features=4736, bias=True)
                (act): GELU(approximate='none')
                (drop1): Dropout(p=0.0, inplace=False)
                (norm): Identity()
                (fc2): Linear(in_features=4736, out_features=1024, bias=True)
                (drop2): Dropout(p=0.0, inplace=False)
              )
              (ls2): Identity()
              (dropout): Dropout(p=0.0, inplace=False)
            )
            (18): Block(
              (norm1): LayerNorm((1024,), eps=1e-05, elementwise_affine=True)
              (attn): Attention(
                (qkv): Linear(in_features=1024, out_features=3072, bias=True)
                (proj): Linear(in_features=1024, out_features=1024, bias=True)
              )
              (ls1): Identity()
              (drop_path): DropPath(drop_prob=0.058)
              (norm2): LayerNorm((1024,), eps=1e-05, elementwise_affine=True)
              (mlp): Mlp(
                (fc1): Linear(in_features=1024, out_features=4736, bias=True)
                (act): GELU(approximate='none')
                (drop1): Dropout(p=0.0, inplace=False)
                (norm): Identity()
                (fc2): Linear(in_features=4736, out_features=1024, bias=True)
                (drop2): Dropout(p=0.0, inplace=False)
              )
              (ls2): Identity()
              (dropout): Dropout(p=0.0, inplace=False)
            )
            (19): Block(
              (norm1): LayerNorm((1024,), eps=1e-05, elementwise_affine=True)
              (attn): Attention(
                (qkv): Linear(in_features=1024, out_features=3072, bias=True)
                (proj): Linear(in_features=1024, out_features=1024, bias=True)
              )
              (ls1): Identity()
              (drop_path): DropPath(drop_prob=0.061)
              (norm2): LayerNorm((1024,), eps=1e-05, elementwise_affine=True)
              (mlp): Mlp(
                (fc1): Linear(in_features=1024, out_features=4736, bias=True)
                (act): GELU(approximate='none')
                (drop1): Dropout(p=0.0, inplace=False)
                (norm): Identity()
                (fc2): Linear(in_features=4736, out_features=1024, bias=True)
                (drop2): Dropout(p=0.0, inplace=False)
              )
              (ls2): Identity()
              (dropout): Dropout(p=0.0, inplace=False)
            )
            (20): Block(
              (norm1): LayerNorm((1024,), eps=1e-05, elementwise_affine=True)
              (attn): Attention(
                (qkv): Linear(in_features=1024, out_features=3072, bias=True)
                (proj): Linear(in_features=1024, out_features=1024, bias=True)
              )
              (ls1): Identity()
              (drop_path): DropPath(drop_prob=0.065)
              (norm2): LayerNorm((1024,), eps=1e-05, elementwise_affine=True)
              (mlp): Mlp(
                (fc1): Linear(in_features=1024, out_features=4736, bias=True)
                (act): GELU(approximate='none')
                (drop1): Dropout(p=0.0, inplace=False)
                (norm): Identity()
                (fc2): Linear(in_features=4736, out_features=1024, bias=True)
                (drop2): Dropout(p=0.0, inplace=False)
              )
              (ls2): Identity()
              (dropout): Dropout(p=0.0, inplace=False)
            )
            (21): Block(
              (norm1): LayerNorm((1024,), eps=1e-05, elementwise_affine=True)
              (attn): Attention(
                (qkv): Linear(in_features=1024, out_features=3072, bias=True)
                (proj): Linear(in_features=1024, out_features=1024, bias=True)
              )
              (ls1): Identity()
              (drop_path): DropPath(drop_prob=0.068)
              (norm2): LayerNorm((1024,), eps=1e-05, elementwise_affine=True)
              (mlp): Mlp(
                (fc1): Linear(in_features=1024, out_features=4736, bias=True)
                (act): GELU(approximate='none')
                (drop1): Dropout(p=0.0, inplace=False)
                (norm): Identity()
                (fc2): Linear(in_features=4736, out_features=1024, bias=True)
                (drop2): Dropout(p=0.0, inplace=False)
              )
              (ls2): Identity()
              (dropout): Dropout(p=0.0, inplace=False)
            )
            (22): Block(
              (norm1): LayerNorm((1024,), eps=1e-05, elementwise_affine=True)
              (attn): Attention(
                (qkv): Linear(in_features=1024, out_features=3072, bias=True)
                (proj): Linear(in_features=1024, out_features=1024, bias=True)
              )
              (ls1): Identity()
              (drop_path): DropPath(drop_prob=0.071)
              (norm2): LayerNorm((1024,), eps=1e-05, elementwise_affine=True)
              (mlp): Mlp(
                (fc1): Linear(in_features=1024, out_features=4736, bias=True)
                (act): GELU(approximate='none')
                (drop1): Dropout(p=0.0, inplace=False)
                (norm): Identity()
                (fc2): Linear(in_features=4736, out_features=1024, bias=True)
                (drop2): Dropout(p=0.0, inplace=False)
              )
              (ls2): Identity()
              (dropout): Dropout(p=0.0, inplace=False)
            )
            (23): Block(
              (norm1): LayerNorm((1024,), eps=1e-05, elementwise_affine=True)
              (attn): Attention(
                (qkv): Linear(in_features=1024, out_features=3072, bias=True)
                (proj): Linear(in_features=1024, out_features=1024, bias=True)
              )
              (ls1): Identity()
              (drop_path): DropPath(drop_prob=0.074)
              (norm2): LayerNorm((1024,), eps=1e-05, elementwise_affine=True)
              (mlp): Mlp(
                (fc1): Linear(in_features=1024, out_features=4736, bias=True)
                (act): GELU(approximate='none')
                (drop1): Dropout(p=0.0, inplace=False)
                (norm): Identity()
                (fc2): Linear(in_features=4736, out_features=1024, bias=True)
                (drop2): Dropout(p=0.0, inplace=False)
              )
              (ls2): Identity()
              (dropout): Dropout(p=0.0, inplace=False)
            )
            (24): Block(
              (norm1): LayerNorm((1024,), eps=1e-05, elementwise_affine=True)
              (attn): Attention(
                (qkv): Linear(in_features=1024, out_features=3072, bias=True)
                (proj): Linear(in_features=1024, out_features=1024, bias=True)
              )
              (ls1): Identity()
              (drop_path): DropPath(drop_prob=0.077)
              (norm2): LayerNorm((1024,), eps=1e-05, elementwise_affine=True)
              (mlp): Mlp(
                (fc1): Linear(in_features=1024, out_features=4736, bias=True)
                (act): GELU(approximate='none')
                (drop1): Dropout(p=0.0, inplace=False)
                (norm): Identity()
                (fc2): Linear(in_features=4736, out_features=1024, bias=True)
                (drop2): Dropout(p=0.0, inplace=False)
              )
              (ls2): Identity()
              (dropout): Dropout(p=0.0, inplace=False)
            )
            (25): Block(
              (norm1): LayerNorm((1024,), eps=1e-05, elementwise_affine=True)
              (attn): Attention(
                (qkv): Linear(in_features=1024, out_features=3072, bias=True)
                (proj): Linear(in_features=1024, out_features=1024, bias=True)
              )
              (ls1): Identity()
              (drop_path): DropPath(drop_prob=0.081)
              (norm2): LayerNorm((1024,), eps=1e-05, elementwise_affine=True)
              (mlp): Mlp(
                (fc1): Linear(in_features=1024, out_features=4736, bias=True)
                (act): GELU(approximate='none')
                (drop1): Dropout(p=0.0, inplace=False)
                (norm): Identity()
                (fc2): Linear(in_features=4736, out_features=1024, bias=True)
                (drop2): Dropout(p=0.0, inplace=False)
              )
              (ls2): Identity()
              (dropout): Dropout(p=0.0, inplace=False)
            )
            (26): Block(
              (norm1): LayerNorm((1024,), eps=1e-05, elementwise_affine=True)
              (attn): Attention(
                (qkv): Linear(in_features=1024, out_features=3072, bias=True)
                (proj): Linear(in_features=1024, out_features=1024, bias=True)
              )
              (ls1): Identity()
              (drop_path): DropPath(drop_prob=0.084)
              (norm2): LayerNorm((1024,), eps=1e-05, elementwise_affine=True)
              (mlp): Mlp(
                (fc1): Linear(in_features=1024, out_features=4736, bias=True)
                (act): GELU(approximate='none')
                (drop1): Dropout(p=0.0, inplace=False)
                (norm): Identity()
                (fc2): Linear(in_features=4736, out_features=1024, bias=True)
                (drop2): Dropout(p=0.0, inplace=False)
              )
              (ls2): Identity()
              (dropout): Dropout(p=0.0, inplace=False)
            )
            (27): Block(
              (norm1): LayerNorm((1024,), eps=1e-05, elementwise_affine=True)
              (attn): Attention(
                (qkv): Linear(in_features=1024, out_features=3072, bias=True)
                (proj): Linear(in_features=1024, out_features=1024, bias=True)
              )
              (ls1): Identity()
              (drop_path): DropPath(drop_prob=0.087)
              (norm2): LayerNorm((1024,), eps=1e-05, elementwise_affine=True)
              (mlp): Mlp(
                (fc1): Linear(in_features=1024, out_features=4736, bias=True)
                (act): GELU(approximate='none')
                (drop1): Dropout(p=0.0, inplace=False)
                (norm): Identity()
                (fc2): Linear(in_features=4736, out_features=1024, bias=True)
                (drop2): Dropout(p=0.0, inplace=False)
              )
              (ls2): Identity()
              (dropout): Dropout(p=0.0, inplace=False)
            )
            (28): Block(
              (norm1): LayerNorm((1024,), eps=1e-05, elementwise_affine=True)
              (attn): Attention(
                (qkv): Linear(in_features=1024, out_features=3072, bias=True)
                (proj): Linear(in_features=1024, out_features=1024, bias=True)
              )
              (ls1): Identity()
              (drop_path): DropPath(drop_prob=0.090)
              (norm2): LayerNorm((1024,), eps=1e-05, elementwise_affine=True)
              (mlp): Mlp(
                (fc1): Linear(in_features=1024, out_features=4736, bias=True)
                (act): GELU(approximate='none')
                (drop1): Dropout(p=0.0, inplace=False)
                (norm): Identity()
                (fc2): Linear(in_features=4736, out_features=1024, bias=True)
                (drop2): Dropout(p=0.0, inplace=False)
              )
              (ls2): Identity()
              (dropout): Dropout(p=0.0, inplace=False)
            )
            (29): Block(
              (norm1): LayerNorm((1024,), eps=1e-05, elementwise_affine=True)
              (attn): Attention(
                (qkv): Linear(in_features=1024, out_features=3072, bias=True)
                (proj): Linear(in_features=1024, out_features=1024, bias=True)
              )
              (ls1): Identity()
              (drop_path): DropPath(drop_prob=0.094)
              (norm2): LayerNorm((1024,), eps=1e-05, elementwise_affine=True)
              (mlp): Mlp(
                (fc1): Linear(in_features=1024, out_features=4736, bias=True)
                (act): GELU(approximate='none')
                (drop1): Dropout(p=0.0, inplace=False)
                (norm): Identity()
                (fc2): Linear(in_features=4736, out_features=1024, bias=True)
                (drop2): Dropout(p=0.0, inplace=False)
              )
              (ls2): Identity()
              (dropout): Dropout(p=0.0, inplace=False)
            )
            (30): Block(
              (norm1): LayerNorm((1024,), eps=1e-05, elementwise_affine=True)
              (attn): Attention(
                (qkv): Linear(in_features=1024, out_features=3072, bias=True)
                (proj): Linear(in_features=1024, out_features=1024, bias=True)
              )
              (ls1): Identity()
              (drop_path): DropPath(drop_prob=0.097)
              (norm2): LayerNorm((1024,), eps=1e-05, elementwise_affine=True)
              (mlp): Mlp(
                (fc1): Linear(in_features=1024, out_features=4736, bias=True)
                (act): GELU(approximate='none')
                (drop1): Dropout(p=0.0, inplace=False)
                (norm): Identity()
                (fc2): Linear(in_features=4736, out_features=1024, bias=True)
                (drop2): Dropout(p=0.0, inplace=False)
              )
              (ls2): Identity()
              (dropout): Dropout(p=0.0, inplace=False)
            )
            (31): Block(
              (norm1): LayerNorm((1024,), eps=1e-05, elementwise_affine=True)
              (attn): Attention(
                (qkv): Linear(in_features=1024, out_features=3072, bias=True)
                (proj): Linear(in_features=1024, out_features=1024, bias=True)
              )
              (ls1): Identity()
              (drop_path): DropPath(drop_prob=0.100)
              (norm2): LayerNorm((1024,), eps=1e-05, elementwise_affine=True)
              (mlp): Mlp(
                (fc1): Linear(in_features=1024, out_features=4736, bias=True)
                (act): GELU(approximate='none')
                (drop1): Dropout(p=0.0, inplace=False)
                (norm): Identity()
                (fc2): Linear(in_features=4736, out_features=1024, bias=True)
                (drop2): Dropout(p=0.0, inplace=False)
              )
              (ls2): Identity()
              (dropout): Dropout(p=0.0, inplace=False)
            )
          )
          (ln_pre): LayerNorm((1024,), eps=1e-05, elementwise_affine=True)
          (ln_post): Identity()
        )
        (position_encoding): PositionEmbeddingSine()
        (convs): ModuleList(
          (0): Sequential(
            (dconv_2x2_0): ConvTranspose2d(1024, 512, kernel_size=(2, 2), stride=(2, 2))
            (gelu): GELU(approximate='none')
            (dconv_2x2_1): ConvTranspose2d(512, 256, kernel_size=(2, 2), stride=(2, 2))
            (conv_1x1): Conv2d(256, 256, kernel_size=(1, 1), stride=(1, 1))
            (conv_3x3): Conv2d(256, 256, kernel_size=(3, 3), stride=(1, 1), padding=(1, 1))
          )
          (1): Sequential(
            (dconv_2x2): ConvTranspose2d(1024, 512, kernel_size=(2, 2), stride=(2, 2))
            (conv_1x1): Conv2d(512, 256, kernel_size=(1, 1), stride=(1, 1))
            (conv_3x3): Conv2d(256, 256, kernel_size=(3, 3), stride=(1, 1), padding=(1, 1))
          )
          (2): Sequential(
            (conv_1x1): Conv2d(1024, 256, kernel_size=(1, 1), stride=(1, 1))
            (conv_3x3): Conv2d(256, 256, kernel_size=(3, 3), stride=(1, 1), padding=(1, 1))
          )
          (3): Sequential(
            (maxpool_2x2): MaxPool2d(kernel_size=2, stride=2, padding=0, dilation=1, ceil_mode=False)
            (conv_1x1): Conv2d(1024, 256, kernel_size=(1, 1), stride=(1, 1))
            (conv_3x3): Conv2d(256, 256, kernel_size=(3, 3), stride=(1, 1), padding=(1, 1))
          )
        )
      )
      (language_backbone): VETextEncoder(
        (encoder): TextTransformer(
          (token_embedding): Embedding(49408, 1024)
          (transformer): Transformer(
            (resblocks): ModuleList(
              (0-23): 24 x ResidualAttentionBlock(
                (attn): MultiheadAttention(
                  (out_proj): NonDynamicallyQuantizableLinear(in_features=1024, out_features=1024, bias=True)
                )
                (ln_1): LayerNorm((1024,), eps=1e-05, elementwise_affine=True)
                (ln_2): LayerNorm((1024,), eps=1e-05, elementwise_affine=True)
                (ls_1): Identity()
                (ls_2): Identity()
                (mlp): Sequential(
                  (c_fc): Linear(in_features=1024, out_features=4096, bias=True)
                  (gelu): GELU(approximate='none')
                  (c_proj): Linear(in_features=4096, out_features=1024, bias=True)
                )
              )
            )
          )
          (ln_final): LayerNorm((1024,), eps=1e-05, elementwise_affine=True)
        )
        (resizer): Linear(in_features=1024, out_features=256, bias=True)
      )
    )
    (geometry_encoder): SequenceGeometryEncoder(
      (pos_enc): PositionEmbeddingSine()
      (label_embed): Embedding(2, 256)
      (cls_embed): Embedding(1, 256)
      (points_direct_project): Linear(in_features=2, out_features=256, bias=True)
      (points_pool_project): Linear(in_features=256, out_features=256, bias=True)
      (points_pos_enc_project): Linear(in_features=256, out_features=256, bias=True)
      (boxes_direct_project): Linear(in_features=4, out_features=256, bias=True)
      (boxes_pool_project): Conv2d(256, 256, kernel_size=(7, 7), stride=(1, 1))
      (boxes_pos_enc_project): Linear(in_features=258, out_features=256, bias=True)
      (final_proj): Linear(in_features=256, out_features=256, bias=True)
      (norm): LayerNorm((256,), eps=1e-05, elementwise_affine=True)
      (img_pre_norm): LayerNorm((256,), eps=1e-05, elementwise_affine=True)
      (encode): ModuleList(
        (0-2): 3 x TransformerEncoderLayer(
          (self_attn): MultiheadAttentionWrapper(
            (out_proj): NonDynamicallyQuantizableLinear(in_features=256, out_features=256, bias=True)
          )
          (cross_attn_image): MultiheadAttentionWrapper(
            (out_proj): NonDynamicallyQuantizableLinear(in_features=256, out_features=256, bias=True)
          )
          (linear1): Linear(in_features=256, out_features=2048, bias=True)
          (dropout): Dropout(p=0.1, inplace=False)
          (linear2): Linear(in_features=2048, out_features=256, bias=True)
          (norm1): LayerNorm((256,), eps=1e-05, elementwise_affine=True)
          (norm2): LayerNorm((256,), eps=1e-05, elementwise_affine=True)
          (norm3): LayerNorm((256,), eps=1e-05, elementwise_affine=True)
          (dropout1): Dropout(p=0.1, inplace=False)
          (dropout2): Dropout(p=0.1, inplace=False)
          (dropout3): Dropout(p=0.1, inplace=False)
        )
      )
      (encode_norm): LayerNorm((256,), eps=1e-05, elementwise_affine=True)
    )
    (transformer): TransformerWrapper(
      (encoder): TransformerEncoderFusion(
        (layers): ModuleList(
          (0-5): 6 x TransformerEncoderLayer(
            (self_attn): MultiheadAttentionWrapper(
              (out_proj): NonDynamicallyQuantizableLinear(in_features=256, out_features=256, bias=True)
            )
            (cross_attn_image): MultiheadAttentionWrapper(
              (out_proj): NonDynamicallyQuantizableLinear(in_features=256, out_features=256, bias=True)
            )
            (linear1): Linear(in_features=256, out_features=2048, bias=True)
            (dropout): Dropout(p=0.1, inplace=False)
            (linear2): Linear(in_features=2048, out_features=256, bias=True)
            (norm1): LayerNorm((256,), eps=1e-05, elementwise_affine=True)
            (norm2): LayerNorm((256,), eps=1e-05, elementwise_affine=True)
            (norm3): LayerNorm((256,), eps=1e-05, elementwise_affine=True)
            (dropout1): Dropout(p=0.1, inplace=False)
            (dropout2): Dropout(p=0.1, inplace=False)
            (dropout3): Dropout(p=0.1, inplace=False)
          )
        )
      )
      (decoder): TransformerDecoder(
        (layers): ModuleList(
          (0-5): 6 x TransformerDecoderLayer(
            (cross_attn): MultiheadAttentionWrapper(
              (out_proj): NonDynamicallyQuantizableLinear(in_features=256, out_features=256, bias=True)
            )
            (dropout1): Dropout(p=0.1, inplace=False)
            (norm1): LayerNorm((256,), eps=1e-05, elementwise_affine=True)
            (ca_text): MultiheadAttention(
              (out_proj): NonDynamicallyQuantizableLinear(in_features=256, out_features=256, bias=True)
            )
            (catext_dropout): Dropout(p=0.1, inplace=False)
            (catext_norm): LayerNorm((256,), eps=1e-05, elementwise_affine=True)
            (self_attn): MultiheadAttention(
              (out_proj): NonDynamicallyQuantizableLinear(in_features=256, out_features=256, bias=True)
            )
            (dropout2): Dropout(p=0.1, inplace=False)
            (norm2): LayerNorm((256,), eps=1e-05, elementwise_affine=True)
            (linear1): Linear(in_features=256, out_features=2048, bias=True)
            (dropout3): Dropout(p=0.1, inplace=False)
            (linear2): Linear(in_features=2048, out_features=256, bias=True)
            (dropout4): Dropout(p=0.1, inplace=False)
            (norm3): LayerNorm((256,), eps=1e-05, elementwise_affine=True)
          )
        )
        (norm): LayerNorm((256,), eps=1e-05, elementwise_affine=True)
        (bbox_embed): MLP(
          (layers): ModuleList(
            (0-1): 2 x Linear(in_features=256, out_features=256, bias=True)
            (2): Linear(in_features=256, out_features=4, bias=True)
          )
          (drop): Identity()
          (out_norm): Identity()
        )
        (query_embed): Embedding(200, 256)
        (reference_points): Embedding(200, 4)
        (boxRPB_embed_x): MLP(
          (layers): ModuleList(
            (0): Linear(in_features=2, out_features=256, bias=True)
            (1): Linear(in_features=256, out_features=8, bias=True)
          )
          (drop): Identity()
          (out_norm): Identity()
        )
        (boxRPB_embed_y): MLP(
          (layers): ModuleList(
            (0): Linear(in_features=2, out_features=256, bias=True)
            (1): Linear(in_features=256, out_features=8, bias=True)
          )
          (drop): Identity()
          (out_norm): Identity()
        )
        (presence_token): Embedding(1, 256)
        (presence_token_head): MLP(
          (layers): ModuleList(
            (0-1): 2 x Linear(in_features=256, out_features=256, bias=True)
            (2): Linear(in_features=256, out_features=1, bias=True)
          )
          (drop): Identity()
          (out_norm): Identity()
        )
        (presence_token_out_norm): LayerNorm((256,), eps=1e-05, elementwise_affine=True)
        (ref_point_head): MLP(
          (layers): ModuleList(
            (0): Linear(in_features=512, out_features=256, bias=True)
            (1): Linear(in_features=256, out_features=256, bias=True)
          )
          (drop): Identity()
          (out_norm): Identity()
        )
      )
    )
    (segmentation_head): UniversalSegmentationHead(
      (pixel_decoder): PixelDecoder(
        (conv_layers): ModuleList(
          (0-2): 3 x Conv2d(256, 256, kernel_size=(3, 3), stride=(1, 1), padding=(1, 1))
        )
        (norms): ModuleList(
          (0-2): 3 x GroupNorm(8, 256, eps=1e-05, affine=True)
        )
      )
      (mask_predictor): MaskPredictor(
        (mask_embed): MLP(
          (layers): ModuleList(
            (0-2): 3 x Linear(in_features=256, out_features=256, bias=True)
          )
          (drop): Identity()
          (out_norm): Identity()
        )
      )
      (cross_attend_prompt): MultiheadAttentionWrapper(
        (out_proj): NonDynamicallyQuantizableLinear(in_features=256, out_features=256, bias=True)
      )
      (cross_attn_norm): LayerNorm((256,), eps=1e-05, elementwise_affine=True)
      (semantic_seg_head): Conv2d(256, 1, kernel_size=(1, 1), stride=(1, 1))
      (instance_seg_head): Conv2d(256, 256, kernel_size=(1, 1), stride=(1, 1))
    )
    (dot_prod_scoring): DotProductScoring(
      (prompt_mlp): MLP(
        (layers): ModuleList(
          (0): Linear(in_features=256, out_features=2048, bias=True)
          (1): Linear(in_features=2048, out_features=256, bias=True)
        )
        (drop): Dropout(p=0.1, inplace=False)
        (out_norm): LayerNorm((256,), eps=1e-05, elementwise_affine=True)
      )
      (prompt_proj): Linear(in_features=256, out_features=256, bias=True)
      (hs_proj): Linear(in_features=256, out_features=256, bias=True)
    )
    (matcher): BinaryHungarianMatcherV2(
      (norm): Sigmoid()
    )
  )
  (mask_pooling): MaskPooling()
  (no_object_embed): Embedding(1, 256)
  (sem_seg_projector): PixelProjector(
    (net): Sequential(
      (0): Linear(in_features=256, out_features=256, bias=True)
      (1): LayerNorm((256,), eps=1e-05, elementwise_affine=True)
      (2): GELU(approximate='none')
      (3): Linear(in_features=256, out_features=256, bias=True)
    )
  )
  (criterion): Criterion SetCriterion
      matcher: Matcher HungarianMatcher
          cost_class: 2.0
          cost_mask: 5.0
          cost_dice: 5.0
      losses: ['labels', 'masks']
      weight_dict: {'loss_ce': 2.0, 'loss_mask': 5.0, 'loss_dice': 5.0}
      num_classes: 171
      eos_coef: 0.1
      num_points: 12544
      oversample_ratio: 3.0
…
